…
        },
        "id": "_EFAwmxmwBdZ",
        "outputId": "cc9d9602-814c-47c7-ac5f-51e935d1c546"
      },
      "source": [
        "model.summary()"
      ],
      "execution_count": 12,
      "outputs": [
        {
          "output_type": "stream",
          "text": [
            "Model: \"sequential\"\n",
            "_________________________________________________________________\n",
            "Layer (type)                 Output Shape              Param #   \n",
            "=================================================================\n",
            "conv2d_3 (Conv2D)            (None, 28, 28, 32)        320       \n",
            "_________________________________________________________________\n",
            "max_pooling2d_2 (MaxPooling2 (None, 14, 14, 32)        0         \n",
            "_________________________________________________________________\n",
            "conv2d_4 (Conv2D)            (None, 14, 14, 64)        18496     \n",
            "_________________________________________________________________\n",
            "max_pooling2d_3 (MaxPooling2 (None, 7, 7, 64)          0         \n",
            "_________________________________________________________________\n",
            "flatten (Flatten)            (None, 3136)              0         \n",
            "_________________________________________________________________\n",
            "dense (Dense)                (None, 100)               313700    \n",
            "_________________________________________________________________\n",
            "dropout (Dropout)            (None, 100)               0         \n",
            "_________________________________________________________________\n",
            "dense_1 (Dense)              (None, 10)                1010      \n",
            "=================================================================\n",
            "Total params: 333,526\n",
            "Trainable params: 333,526\n",
            "Non-trainable params: 0\n",
            "_________________________________________________________________\n"
          ],
          "name": "stdout"
        }
      ]
    },
    {
      "cell_type": "code",
      "metadata": {
…
